exported_models/autoencoder.onnx (onnx, 81760 bytes, 11 tensors)

encoder.0.weight f4 [16, 1, 7]
00000000: 2944 92be 2c2b a63e 0d40 42be 8a52 803e
00000010: ebcc bcbd 3af9 613e bab7 60be 83d6 d6bb
00000020: 53b7 02be 1e27 09be f96a f03c 56d2 e2bc
00000030: bb8f b73a 32e3 753a 627d 1f3c 2cd2 a93e
00000040: 128c 953e 0bcf 10bd 6548 243d 207c 3fb9
00000050: 0943 5fb8 5aa9 503c ca9c e7bb d614 c63c
00000060: 14e7 53bc d134 d93c 0234 15bc c990 493c
00000070: f61a bf3d 86b0 123e f780 92be 6e31 c33e
00000080: 2b0e 25be c27b 113e adef 55be 468b 0d3d
00000090: 2d68 24bd db8f bc3c c9e7 f8bc 0844 3f3c
000000a0: 5ce1 e6bc 479f e33c 9316 a9bd 9a01 02be
000000b0: 06c3 813e 3401 adbe 8f79 123e 590f 01be
000000c0: 6bb4 3d3e da68 ad3a d3ab 82b9 90a8 163c
000000d0: e050 ecbb 0011 90bb 9351 11be c741 e7bd
000000e0: a927 80be 44dc 6b3e b26e 0cbe c8a7 9cbe
000000f0: cef8 993e cab4 093d de0f fcbd af5c d7ba
00000100: e880 f63b 6fe8 65bb a379 5f3c 4733 cdbb
00000110: 29e1 513c 9474 beba 1ffb e53a 32c8 9bba
00000120: 2a90 38bc 7a23 c5be 84c9 aebe 9c10 2b3d
00000130: 9428 3ebd 1201 bdbc dfb9 753c dc94 31bd
00000140: 7921 e03c de06 4dbd 902e b93c 651d bbbc
00000150: 56d7 7b3e a153 35bd 92cc 0d3e 57f1 58be
00000160: 6c1c 343e 6656 b3be 03c9 ff3d 64eb 71bd
00000170: e689 d2bc 6da6 183e 5c76 cabd 99de bbbd
00000180: 1ca5 8e3d 7fd2 6d3d 582b 9c3e bed7 8fbe
00000190: 0b43 2b3e 8a01 bf3e 39ba bbbe dfc6 27bd
000001a0: a6bd 193e d42d 93bb a760 573b 2367 203c
000001b0: 2080 a93e 8496 983e 0fd2 18bd 3bbe 223d
-0.28567627 0.32454813 -0.18969746 0.25062972 -0.092187725 0.22067729 -0.21945086 -0.0065563335
-0.12765245 -0.13393828 0.029347884 -0.027688187 0.0014004627 0.0009379863 0.009734483 0.3316816
0.29208428 -0.0353537 0.040108103 -0.0001826142 -5.3229774e-05 0.012735689 -0.0070682513 0.024179857
-0.012933511 0.026514443 -0.009106638 0.012302586 0.09331314 0.14325151 -0.28614017 0.3812365
-0.16118686 0.14207366 -0.2089221 0.03455665 -0.040138412 0.023017814 -0.030383961 0.011673935
-0.028183632 0.02778591 -0.08256259 -0.12695923 0.25344104 -0.3378998 0.14304183 -0.12603511
0.18525855 0.0013230101 -0.0002492355 0.009195462 -0.0072117895 -0.004396558 -0.14191274 -0.11291843
-0.25030258 0.23033243 -0.13714102 -0.30596757 0.30072635 0.03361968 -0.12307714 -0.001643082
0.007522691 -0.0035081168 0.01363984 -0.0062622163 0.01281003 -0.0014530593 0.0017546153 -0.0011885224
-0.01126484 -0.3850363 -0.3413812 0.041763887 -0.046425417 -0.0230718 0.014997928 -0.043354854
0.027359711 -0.050055377 0.02260521 -0.022841165 0.24593863 -0.044269208 0.13847569 -0.21185814
0.17588967 -0.35026854 0.12489512 -0.059062377 -0.02570052 0.14907236 -0.098858565 -0.091733165
0.06965086 0.058062073 0.3050182 -0.28094286 0.16724794 0.37305862 -0.36665514 -0.040961143
0.15013751 -0.004491547 0.0032864006 0.009790215 0.33105564 0.29802334 -0.037309702 0.0397322

encoder.0.bias f4 [16]
00000000: 20bb 87be 1464 17bd c296 a23d febe 553e
00000010: bfa1 063d 4e6b fc3c 0e62 edbc 4861 1dbd
00000020: a1b4 4c3d 11b6 a93e 8e47 bfbd 28f9 debe
00000030: af21 c6be e70c bebc 7c0b 78bd 2c3a ab3d
-0.26509953 -0.036960676 0.07938911 0.20873639 0.032869097 0.030812886 -0.02897742 -0.038422853
0.04997695 0.33146718 -0.0933982 -0.43549466 -0.38697574 -0.023199512 -0.060557827 0.08360705

encoder.2.weight f4 [32, 16, 7]
00000000: 7ed1 0d3d 8758 323d 9f97 253d ca2f 133d
00000010: b5ae 343d 282b 4e3d eaf6 913d 4334 59bc
00000020: 8723 09bb d80b 0f3c ece9 183b e546 613d
00000030: 03d5 6c3c dd04 093d 3394 b0bc d5a3 013d
00000040: bc8b c13b 2c4e 6e3b c403 69bb 3090 22bc
00000050: e023 a53c 3143 09be 8c73 93bc bb8f 603d
00000060: 07b4 183d 0a28 473d 6061 acbd 824b 473d
00000070: e632 243e d0ad b5bc 8eb0 b03d ff23 593c
00000080: eeb6 d63d 5deb 013d 2851 f33c 09b7 14bd
00000090: 4b3a d13c b5f0 443c cba1 b63d 514e c43c
000000a0: 128e 31bd e067 46bc 4ce0 bbbd cce9 b63d
000000b0: 9d77 523d d6a5 a73e cbec 233d 20a4 553d
000000c0: 299a ae3c f152 f1bb 8387 183d 890f ca3c
000000d0: a34f 5a3d cffc 863c e48b 84bd a305 4c3d
000000e0: 72ce a5bc 3761 cdbd 026f 2e3e 32bc d13c
000000f0: d413 573e d9c6 96bc a5ee 233d 757f 863d
00000100: 1450 de3c 1002 da3d bff6 f43d edc2 acbc
00000110: 06d3 d7bd 1ade c7bd da0b f63c 30db 813d
00000120: eca0 42bd 2d63 293d 6eae 7abd 7c17 4c3d
00000130: fe52 e6bb 5557 da3d c256 113e 2801 173e
00000140: 74be fb3d 521b a93d 1c21 ee3d c7f3 fc3d
00000150: 64f7 603c 5079 183d f2a1 0d3e c50f 073e
00000160: bca0 9e3d 4e15 5e3d 0435 d63c c3a2 c83c
00000170: 742a 1d3d 67a7 423d 1623 983e b49a d83c
00000180: 75bc 833c c986 b0ba e281 5bbc 9600 983d
00000190: 5cdf 4d3d a7bc 813d d245 9d3c 6b95 043d
000001a0: 3cf2 9c3c 6575 56bd 50ea e5bc bcd9 a33d
000001b0: 56dc 73bd dd92 5b3e 929b dabc 466d d03c
000001c0: b437 1b3d a24d 883d 659e 3c3d 3794 4f3e
000001d0: 5e02 2b3e 1072 d33d 095a 053d b299 bd3c
000001e0: 0d3c 7cbd 8bda 013d dc9a 93bc ab86 8dbc
000001f0: 19c0 593d 1edb 7c3a 95bb 0bbc b85e 8d3c
00000200: d205 a63c 8131 973d 7fc6 aa3c 050b a73d
00000210: d29a cf3d 0afd bc3c 3ddb f5bd 9ac7 98bd
00000220: 53ce b13d 46c6 91bd a540 c7bd 56fd d5bd
00000230: a1eb a43c 0971 0d3e 437c 1b3c f589 513e
00000240: d50f d03d 6beb 103e cd15 bb3b a95b 0bbd
00000250: 3dba 2cbd a87a f0bd 3c43 a03c 356e 0f3d
00000260: 6e37 eebc 9252 85bc 71fb 853b c735 5b39
00000270: ee85 773c 5122 043d 0547 9fbd ed08 d63c
00000280: ab99 abbc ca0a 97bc c49b 983d 242e 3e3d
00000290: 837f 073d a067 a33d bc4c 80bd f8fb 92b9
000002a0: c4b2 b03c c0e6 013c a2c5 59bd f9ec b23a
000002b0: 6997 643d f3d2 593d d4d0 00bb e421 0a3c
000002c0: 11ff b9bd 4fd3 41bd a3f5 8a3d 87db b73d
000002d0: eeed ba3d 91cc 8a3c 6762 bb3c 58c7 033c
000002e0: ffc2 9e3b 6b82 f9bc e592 38bb 2076 44bd
000002f0: 9024 703c a2be 373c a50e 293e ada3 d03d
00000300: 0411 9f3d 57b0 f03d 7cc1 ec3d b6d9 083d
00000310: 6fda 5abc ef67 543b 21bb ef3d f3ad f63d
00000320: 50f8 f23d 1599 513d c1cf 523c f3ea 11bd
00000330: 4c52 ccbd f804 57bd e061 74bc f705 9cbd
00000340: 7a41 e4bd be28 8b3a a463 16bc 4edb 01bc
00000350: 0941 023e 5905 21bc f835 2c3e c125 94bc
00000360: 2b5a 9f3c 3d19 9d39 b119 03bc fa14 8fbd
00000370: 8b1a 8dbc a5e5 223e bca3 3f3d 0c37 be3b
00000380: 33f8 093d 2d89 3e3d 99ca 993d 81b4 1d3e
00000390: 94ea bd3c 0cc1 d03d 8310 f63c d6c6 23bd
000003a0: 98f4 cab9 df75 ee3d 3f48 133e 344b b63d
000003b0: b51d 8a3d e008 c63d 8056 f83c 7374 c33d
000003c0: dd20 b33c 93d4 613e 0de4 793e 2815 df3d
000003d0: 3f29 3b3d 6232 8ebd 5018 6cbd 3c3c 2bbd
000003e0: 2207 d93d 77a8 bc3c eecd 6e3d 7df9 563d
000003f0: 03d5 a9bb 0b97 02bd d6bc ce3d 734f a23c
0.034623615 0.043541458 0.0404278 0.035934247 0.044111926 0.050334126 0.07127173 -0.013257089
-0.0020925717 0.008730851 0.0023332788 0.05499925 0.014455083 0.033451904 -0.021555042 0.031650383
0.00590655 0.0036362512 -0.0035555223 -0.009922072 0.020158708 -0.13404538 -0.017999433 0.054824572
0.037281062 0.04862217 -0.0841701 0.048655994 0.16035041 -0.022177607 0.08627425 0.013253211
0.1048411 0.0317186 0.029701784 -0.03630737 0.025540492 0.01202028 0.08917578 0.023963125
-0.04334838 -0.012109727 -0.091736406 0.08931312 0.051383603 0.3274371 0.040020745 0.052158475
0.021313744 -0.0073646237 0.03723861 0.02466561 0.053298604 0.01647797 -0.064719945 0.049810063
-0.020240042 -0.10028308 0.17034534 0.025602434 0.21003658 -0.018405365 0.04002251 0.06567279
0.027137794 0.10644925 0.119611256 -0.021089042 -0.105382964 -0.097591594 0.030034948 0.06340635
-0.04751675 0.041354347 -0.061201505 0.049827084 -0.0070289364 0.106611885 0.14193252 0.14746535
0.122921854 0.08257164 0.11627409 0.12351184 0.0137308575 0.037225068 0.13831308 0.1318961
0.077455014 0.054219536 0.026148327 0.024491673 0.038370565 0.04752293 0.29714268 0.026440956
0.016081074 -0.0013467903 -0.013397666 0.07421987 0.05026184 0.06334811 0.019198332 0.03236906
0.019158475 -0.05235805 -0.02806583 0.08000514 -0.0595363 0.21442743 -0.02668551 0.02544273
0.03789492 0.06655432 0.046049494 0.20271383 0.16700122 0.1032449 0.032556567 0.023144577
-0.061580706 0.03170256 -0.018018179 -0.017276129 0.053161714 0.0009645688 -0.00852861 0.01725708
0.020266447 0.07382489 0.020846603 0.08156399 0.101369515 0.023069877 -0.12004707 -0.07459946
0.08681931 -0.07117896 -0.09729127 -0.104487106 0.020131888 0.1381265 0.0094900755 0.20462783
0.1015927 0.14152305 0.005709386 -0.03402296 -0.0421698 -0.11742145 0.01956331 0.03501721
-0.029079165 -0.016274724 0.004088812 0.00020905501 0.015107615 0.03225929 -0.07777218 0.026127303
-0.020947298 -0.018437762 0.07451585 0.046430722 0.03308059 0.07978749 -0.06264636 -0.0002803502
0.021569617 0.00792855 -0.053166993 0.0013650946 0.05580846 0.053179692 -0.0019655721 0.008430932
-0.09081853 -0.04732066 0.06785133 0.089774184 0.09127413 0.016943248 0.02287407 0.008043133
0.0048450227 -0.030457696 -0.0028163728 -0.047964215 0.014657155 0.011214884 0.16509493 0.10187469
0.07766917 0.11752384 0.11560342 0.03341075 -0.013357743 0.0032410582 0.11705614 0.12044897
0.11863768 0.05117138 0.012866915 -0.035624456 -0.099766344 -0.052494973 -0.014915913 -0.07618325
-0.11145301 0.0010617 -0.00917903 -0.0079258215 0.12720121 -0.009827935 0.16817462 -0.018084409
0.019452175 0.00029964178 -0.008001731 -0.06986423 -0.01722457 0.15907915 0.04678701 0.005804902
0.033683967 0.04651754 0.075093456 0.15400888 0.023183145 0.10193071 0.03003717 -0.039984547
-0.0003871068 0.11643576 0.14383028 0.089010626 0.067439474 0.096696615 0.030314684 0.09543695
0.021866256 0.22053747 0.244034 0.10892707 0.045693632 -0.069432035 -0.057640374 -0.04180549
0.105970636 0.023029549 0.05830186 0.052484024 -0.0051828637 -0.031882327 0.10094611 0.019813275

encoder.2.bias f4 [32]
00000000: e731 9bbc d69d f43c 2d0e 4b3d 1d68 643d
00000010: 35ef b23d 956b 743c 6edb e53d 9432 813d
00000020: 1d5a 443d 45b5 c53c 41cb d03c 317a 34bc
00000030: 4ccd c9bb 3c22 753d 5f00 a03d d6b6 b43c
00000040: 6eb4 b83d 3748 70bd 42fa 7b3d 2cd1 8e3d
00000050: a973 863d 3c39 373d 1894 263d 5d99 79bc
00000060: f169 113c 7e03 e73d 9b32 1ebd 20cf 8cbd
00000070: 7977 713c 9106 a0bc 5b24 843c ad1f 203d
-0.018944694 0.029860418 0.049574066 0.055763353 0.08737031 0.014918228 0.112234935 0.06308475
0.0479375 0.024134288 0.025487544 -0.011015461 -0.0061585065 0.0598471 0.07812571 0.02205984
0.09018789 -0.05866262 0.06151796 0.0697349 0.06565029 0.044732317 0.040668577 -0.015234319
0.008875356 0.11279963 -0.03862248 -0.068754435 0.014737957 -0.019534381 0.016130617 0.03909271

encoder.4.weight f4 [64, 32, 3]
00000000: 8cb8 103c 5f73 a93d 5933 a63b 230d a23d
00000010: 297c ac3d 9af4 4c3d 4dbd a43c 14ce 55bd
00000020: 6639 263d c52e 5bbd 44b6 9dbd 6972 803c
00000030: d4fd 4abd 22ce 88bb c156 5b3d caa8 d4bd
00000040: 449d c9bc 4b6f 75bd 4289 ed3d 00fd 54bd
00000050: 3061 593c 4f53 063e 14b3 f8bb 455f c43d
00000060: 0471 12bc 4109 acbd c1e7 b53d 2bb1 633c
00000070: 734d 04be 06e3 813b 9085 b53d e81b 163e
00000080: 72b0 eabc 0738 c1bc 411a e13d a3c4 c2bb
00000090: a4f4 2a3b a1ca 83bd 553f 593d b75e 6b3b
000000a0: 5fe3 5038 53ec e13d 2c35 2a3c 6792 90bd
000000b0: bd66 283d 6cc1 563c 48b6 c23d fd2f 20bb
000000c0: 2ef8 b0bc 4266 bebd b1d0 ee3b b243 8f3d
000000d0: 66db 3bbc d17e 6d3d d4b7 ad3c 42b2 c8bd
000000e0: 54e3 303d 282d 5abc b958 123d f128 5a3c
000000f0: 3743 f63d 9fd8 123c 311c 413d dc26 2e3d
00000100: bdb7 053c a553 143d a099 4c3d 5022 eabc
00000110: 7306 0dbd d902 7d3c 9579 bbbd 1da1 503d
00000120: 039f e83d 1540 1cbd 343d fb3d 5bcb d23a
00000130: 4694 5abc 77a2 263d b93f 61bd 60b8 1c3d
00000140: aa1c 10bd 40a8 7ebd b448 e63d 0632 d03d
00000150: e841 8b3d a9d3 0b3d 9684 39bd a603 18bd
00000160: 3dfa d9bd 3d41 6f3d a6df 833d d816 1dbd
00000170: 0a51 afbd 0c33 d4bc 18bf c8bd 009b eebd
00000180: 58f1 b0bd 471f 12bd 288a 31bb 4976 05be
00000190: 37a6 36bd a5f2 c63d 8500 fa3c 3831 023e
000001a0: d65b f33d 1f86 383e 431d aabe e673 81bd
000001b0: 8766 25bd dad2 f3bc 4fc8 4a3d 4cd8 3ebd
000001c0: b47f 523d ab4e 4b3d 0806 36be 27d1 7c3d
000001d0: 8b6a de3c 524e bbbe ff7a 023e 1fd5 7fbd
000001e0: 9999 b4bc 75dd 373d e0a2 2c3e 5d0d 1fbe
000001f0: 95a8 923c 9ffd f93c 3d2d 43bd 735e 0cbe
00000200: 8c74 9cbc 78af d5bd a4ce 06bc 7ac4 c03c
00000210: 6a29 60be 1408 213e 35fd 173d 1a3d 4fbe
00000220: 84c5 913d 75e3 a1bd 16a6 98be 7615 4d3d
00000230: 4d54 72bd 4d80 6abe 7ccc 623d 2034 a3bd
00000240: 2784 63bd 8320 383e 293c e53d 8299 8cbe
00000250: ff3a 973a b3ec 21bd 6958 77be 5b4d 36be
00000260: 8111 20bb cd74 95be 8c7d 7fbd b487 3abd
00000270: dde2 91be 1e74 533e f03f e73d 6c22 9cbe
00000280: 1e15 0fbe 5eab 1f3d aaf7 dcbd 81b5 ca3d
00000290: d20b 9f3d eff5 1b3d 38d9 4e3e 7dc6 223e
000002a0: 6a4f 49be 283f a8bd 9884 6b3c 1e01 80bd
000002b0: 3ecf 703b 4145 b93d fcb9 cdbd 57d3 173e
000002c0: 44ca f63c cf59 11be c87e 6ebd b820 03be
000002d0: bb07 7ebe 54d7 963c 7a09 a6bb 2bc7 21be
000002e0: 24cb 92bc b880 a9bd 744a b2be eafd 30bc
000002f0: 90ca 983d e0b4 963c bd43 933d 40c3 d23d
00000300: 7833 e6be 3b17 ef3c ab26 2a3e 8faf 88be
00000310: ad9e 10bd 4c60 033d b3c7 0abf d780 e8bd
00000320: 56ba ecbd 82b1 edbe b54b 043e e68f 0f3e
00000330: b166 1dbf a38d e13d 6681 a5bc 53cd 0dbf
00000340: 7895 5d3e a3a9 463e 753f 97be c2bd 7a3e
00000350: d59a 9b3c 047d 1bbf 20d3 173f 9e75 3f3e
00000360: b80e 1abf 9097 f73d a608 b23d 9c8d 15bf
00000370: 0276 b6bd 1310 013d ef80 2ebf cb8a ec3e
00000380: 4c24 1c3e cc24 08bf 6b54 37be 2a57 1e3e
00000390: b1bd 653e 9a81 8d3a 08a4 9e3e be3d 11bf
000003a0: 12d2 183e 27a3 7bbd 2c24 21bf 79eb 24be
000003b0: d9d5 043d 85d6 fdbe 78ed 1f3f 04cf 1dbe
000003c0: fb0e 18bf 538c ba3e 16e8 7abe 6fad 9ebe
000003d0: 2eb3 553d 9120 b2bd c33a cebe 5da3 f1bd
000003e0: fdd9 d7bd 8e20 bcbe 1039 61be 5d0e b3bd
000003f0: 53f0 01bf 2b0b eebd e428 b43e 7436 a6be
0.008833062 0.082739584 0.005072039 0.07912662 0.08422119 0.050037958 0.020109797 -0.052198485
0.040582083 -0.0535114 -0.0770078 0.015679555 -0.049558476 -0.0041749636 0.05354953 -0.103837565
-0.024611123 -0.05992059 0.115984455 -0.051999092 0.0132678 0.13117717 -0.007589707 0.09588484
-0.008938078 -0.084002025 0.08882094 0.013897221 -0.1292017 0.003963831 0.08863366 0.14659083
-0.028648589 -0.023586286 0.10991336 -0.005943851 0.0026085759 -0.06435133 0.053038914 0.0035914609
4.980282e-05 0.110314034 0.010388654 -0.07059174 0.041113604 0.013107639 0.09507424 -0.0024442666
-0.021602716 -0.09296848 0.0072880615 0.06995334 -0.011465883 0.05798227 0.02120582 -0.09799625
0.043185547 -0.01331643 0.035729144 0.013315425 0.12024539 0.008962779 0.047146026 0.042517528
0.008161482 0.036212582 0.049951196 -0.028580815 -0.03442998 0.015442573 -0.09154049 0.0509349
0.11358454 -0.03814705 0.12267533 0.0016082333 -0.013341015 0.040682282 -0.05499241 0.03826177
-0.035183586 -0.062172174 0.11244336 0.10165791 0.0679968 0.0341374 -0.04529246 -0.037112854
-0.10643432 0.058411825 0.06439142 -0.038351864 -0.08560379 -0.025903247 -0.09802073 -0.11650658
-0.08639783 -0.03567436 -0.0027090404 -0.13033403 -0.04459211 0.097142495 0.030517826 0.12714088
0.11882751 0.18019913 -0.3322545 -0.06320934 -0.04038098 -0.029763628 0.049507435 -0.046592996
0.05139132 0.04963557 -0.17775738 0.0617229 0.027150413 -0.3658319 0.12742232 -0.062459107
-0.022045897 0.044888932 0.16859007 -0.15532441 0.017902652 0.030516444 -0.047650564 -0.13707905
-0.019098543 -0.10433859 -0.008227978 0.023531187 -0.21890798 0.15725738 0.03710671 -0.20238152
0.07117751 -0.07904712 -0.29814214 0.050069295 -0.059162427 -0.22900505 0.055370793 -0.079689264
-0.055545952 0.17981152 0.11193115 -0.27460867 0.0011537968 -0.039532375 -0.2415482 -0.17802946
-0.0024424496 -0.29190674 -0.06237559 -0.045539573 -0.28493395 0.20649764 0.11291492 -0.30495012
-0.139729 0.038981788 -0.10789426 0.098979004 0.077659264 0.038076337 0.2020005 0.1589603
-0.196592 -0.08215171 0.0143748745 -0.06250213 0.003674462 0.09046412 -0.10045239 0.14826714
0.030125745 -0.14194416 -0.058226377 -0.1280545 -0.24807636 0.018413223 -0.0050670477 -0.15798633
-0.01791913 -0.08276504 -0.34822428 -0.010802725 0.07460511 0.018396795 0.071906544 0.10291147
-0.44961143 0.029185882 0.16616313 -0.2669644 -0.035307575 0.032074258 -0.54210967 -0.11352699
-0.11558978 -0.4642449 0.12919505 0.14019737 -0.6148482 0.11013343 -0.020203304 -0.55391425
0.21639049 0.19400649 -0.295406 0.2448645 0.018994728 -0.60737634 0.59306526 0.18697211
-0.6017871 0.12089455 0.08693056 -0.58419204 -0.08909227 0.03150947 -0.6816549 0.4619964
0.15248221 -0.5318115 -0.17903297 0.15462938 0.22435643 0.001079607 0.3098452 -0.56734836
0.14923885 -0.06143489 -0.6294582 -0.1610545 0.032430504 -0.49577728 0.62471724 -0.15411001
-0.5939786 0.36435184 -0.24502596 -0.30991694 0.052172832 -0.08697618 -0.40279207 -0.11798737
-0.10539625 -0.36743587 -0.21994424 -0.08742974 -0.5075733 -0.11623224 0.35187447 -0.3246342

encoder.4.bias f4 [64]
00000000: d0dc 273d d843 45bd 961e 813e ccd5 923c
00000010: d457 1b3d 8d98 0f3d fb58 a03c 58d4 59bd
00000020: 471c 9a3d cccb 8c3d 1134 9c3d ddcf b43c
00000030: a3e1 57bc f4bb 36bc 04dc 023d cd2f af3c
00000040: 3b3f 463d 17a1 343d e398 123d aef3 173d
00000050: d27a 4cbc bd43 dbbb 5d88 523d 4d38 573c
00000060: 1130 c63d 64d9 cf3b d38b b13d 5b3b 63bd
00000070: d2ea 243d cac2 17bd 799b 3abd ff45 29bc
00000080: 1ec7 543d 36ff 4fba 2d64 9ebc 38f7 cdbc
00000090: cf58 cb3c 020a 223d 84e8 8c3d 3179 aabc
000000a0: 8378 f7bc b77a f73b d189 443d 5ed3 863d
000000b0: f095 bd3c fc81 863d c4b2 2ebd 138e 913d
000000c0: 25b4 30bc a42c 2dbb e556 a43d 95a5 70bd
000000d0: 453f b63c 58b8 423d 65fb 083d 2b49 31bc
000000e0: 9439 88bd b5c6 f03b 2e9b bb3b 43e2 663d
000000f0: c1b6 d73d 4b1d 693d 02d6 acbb 8bec 3abd
0.040982068 -0.048160404 0.25218648 0.017924212 0.037925556 0.035057593 0.01957368 -0.053181022
0.07524925 0.06874809 0.076271184 0.022071773 -0.013176355 -0.01115321 0.031948105 0.021385098
0.048400145 0.04409894 0.035790335 0.037097625 -0.0124804545 -0.0066914246 0.051399577 0.013135982
0.09677137 0.0063430537 0.086692475 -0.055476528 0.040263005 -0.037051 -0.045558427 -0.01033163
0.051947705 -0.0007934453 -0.019334877 -0.025142297 0.02482262 0.039560325 0.06880286 -0.020809742
-0.030208832 0.0075524705 0.047982994 0.06583284 0.023142785 0.06567761 -0.042650953 0.07107177
-0.010785137 -0.0026424313 0.08024386 -0.05875166 0.022246966 0.047539085 0.033442874 -0.010820667
-0.06651607 0.0073479065 0.005725286 0.056368124 0.105329044 0.0569127 -0.005274535 -0.04563574

decoder.0.weight f4 [64, 32, 3]
00000000: 73ad edbd 6a77 ffbd ba2f 1b3e 2265 a1bd
00000010: f7c3 ee3c 33fe f0bc 1fcc d4bc ca12 8abc
00000020: a7a9 033d d2ee b23d c067 a33d d73c 9fbd
00000030: a3a7 16bc 47ba babd 145a 9abd 014d c4bd
00000040: b98a 2bbc eb60 1cbd 3672 323d d009 09bd
00000050: c60b 0b3c a22b 67bd 9030 eebd de76 c43d
00000060: 15ae cc3b da30 9ebc 88df 5fbd f5f5 a83c
00000070: f586 e53a 3df2 83bd cdac a83c 23b2 9f3d
00000080: 9ca2 1cbd fd02 263e 0015 0bbd 2e69 143d
00000090: 5b67 7cbd b93d 343d c026 4aba e122 babd
000000a0: b3a4 ecbc d09a 2dbd 0349 72be 855f c3bd
000000b0: 618a 9b3e f333 8f3d b70d a7be 02a5 0ebd
000000c0: 87d6 983b 90e6 78bc 449a 92bd beaf 8f3d
000000d0: 25b3 92bd 63ea 67bd 778e 193d 89b5 473d
000000e0: ceb0 f7bd ea96 49bd c470 223d b4a1 703d
000000f0: 587e cabb c468 a73c 08cb 853b 5b24 583d
00000100: caf4 c3bd 7cb5 9ebd d5f5 f1bd bf1b 2fbd
00000110: aefd a6bc 47ea fe3d ba7e 0dbd 5a09 40bd
00000120: 80c9 0c3e 957c f73d 507b 9d3d 7327 b83d
00000130: 0a69 c6bd bb3c af3c 826d 3a3c c606 923c
00000140: fc38 9abc bb02 e53d 89f3 c53d 47df a4bc
00000150: 439b cd3d 8b24 57bd bd40 233d 1032 673d
00000160: 39cc 103e 2002 8abd a0a8 90bd b9e8 2cbd
00000170: 80c3 793d d2bd 503c 3096 67bd 45b4 5abd
00000180: f3b1 97bb 5c4d ea3c 5a92 e73d 5af9 94bd
00000190: 6690 943d 1494 303d 3699 a73d 90e4 b53d
000001a0: a732 113c d76b fcbc 8433 3cbd f66d 383d
000001b0: cfe3 c03c 152e 9abb cd64 3e3e 64ac cf3d
000001c0: a6e0 1e3d 952f 2cbd 172a 623c 8c5c 113d
000001d0: 00ed 4a3e 452f 303e d5f6 8d3d 06fb c1bd
000001e0: f6cf e2bc 40de a4bd 85da 123e 6a75 973c
000001f0: 9df6 353d 04d0 f73d 2e54 d63d 257e b5bd
00000200: be9d 913c c51d 97bd 8c32 fd3d 9352 14bd
00000210: 57ae 9a3d 18d9 843d 47a1 9f3d 66a7 9e3d
00000220: a16a 693d 33dc e93c ad20 4ebb decd a3bd
00000230: 543b 6a3e a27d 88bb bb40 b43e e6e3 493e
00000240: 84b2 ddbc 9796 303e 5b9f 373d c891 6a3c
00000250: 0976 653d 590e 833d 0700 b6bd 2392 f33d
00000260: e51e 893c f8ae 423d 4b60 423d 66ab 0d3e
00000270: be56 a63d 0031 983d 15d2 ad3d 2304 92bd
00000280: 4b6c 043e 0aa9 ea3d 967a 983d 9ed8 e33d
00000290: eb2f 9c3b b173 b5bd 1b86 dabd 7308 453d
000002a0: 6bc1 e3bd 4064 073d 96df 123d 724a 3cbe
000002b0: 2a3f 553d 7ea2 433e ce75 cdbc 4047 bd3b
000002c0: 0f30 c5bd dcbf 963d 998a 1e3d d57e 233d
000002d0: 2412 7d3d 1221 983d 241d 3d3e fac1 fb3c
000002e0: 49e9 a83d 81ba 51bd b4fe 9fbc 92d3 6abd
000002f0: 77e6 f73d 1331 90bd 6ffc 59bc 4996 2ebd
00000300: 401f db3d 5459 97bb 1cd2 813d f613 ef3d
00000310: 1e6e bf3d e7b3 aebd af2b 95be 5f5b 993e
00000320: 7c94 84bb 270d 7f3e b54d 1d3f 1587 2dbc
00000330: ebd7 6f3e db3d 9e3e 7cbb aebd 0b37 00be
00000340: 1548 373e db1e 903c 00fd 88be 4dbf 3c3c
00000350: 3e7e 1f3e 536e 0bbe aee4 c9bd 01d8 b33e
00000360: d267 3c3e 54e1 1a3e d096 8f3e b4ea 153e
00000370: 1c3b 103d c9c2 8abd ed3a 5abe 2fe5 bb3d
00000380: 540b fd3e e2e4 393e 97f8 fb3e 5277 673f
00000390: 55b1 aa3e 3586 413e 56a8 a03e 9bed 153e
000003a0: 3016 23bc 3166 893e ff39 2d3d f36f 403d
000003b0: b301 52bd 8088 803e 3880 a13f 82f8 92bd
000003c0: 1c59 8cbe ca42 be3d 0af3 4f3e d3b4 9cbe
000003d0: aeb3 0c3e 64f5 123e 23cf f43d d8c5 8b3d
000003e0: c9ed 443e e107 c13e 63fe cb3e 7cc5 4b3e
000003f0: b0eb 96bd df27 c33d eb80 403e 46ce f4bc
-0.116053484 -0.12473948 0.15154925 -0.07880618 0.029146178 -0.029418087 -0.025976239 -0.016854662
0.032144215 0.087369576 0.07978773 -0.07775276 -0.009195241 -0.09117561 -0.07536712 -0.09585
-0.010470086 -0.038178366 0.04356595 -0.033456624 0.008486694 -0.056438096 -0.11630356 0.095929846
0.006246338 -0.019310404 -0.054656535 0.020625094 0.0017511534 -0.06442688 0.02059021 0.07797649
-0.038241014 0.16212077 -0.033955574 0.03623312 -0.061622005 0.044004176 -0.00077114627 -0.09088684
-0.028887128 -0.04238397 -0.23660664 -0.09539703 0.30379012 0.069923304 -0.3262765 -0.034825332
0.0046642455 -0.015191689 -0.0715833 0.07015942 -0.07163075 -0.056620013 0.03748938 0.04875711
-0.1209427 -0.04921619 0.039658323 0.058747962 -0.006179612 0.020435698 0.004083041 0.052769046
-0.09568174 -0.07749459 -0.11814467 -0.04275107 -0.020384636 0.124470286 -0.034544684 -0.04688392
0.13748741 0.12084309 0.076895356 0.08991899 -0.09688003 0.021391263 0.011378648 0.017825495
-0.018826 0.111821614 0.09665591 -0.020125998 0.100393794 -0.052525084 0.03985666 0.056444228
0.14140405 -0.067386866 -0.07063413 -0.04221413 0.06097746 0.012740569 -0.056539714 -0.053394575
-0.0046293675 0.028601341 0.11307211 -0.072741225 0.07254104 0.04310997 0.081835195 0.088814855
0.008862174 -0.03081314 -0.045947567 0.045026742 0.023546128 -0.0047052004 0.1859314 0.10140303
0.03878846 -0.042037565 0.01380398 0.03548865 0.19816971 0.17205532 0.06931845 -0.09471707
-0.027687054 -0.08050203 0.14341171 0.018488605 0.044424642 0.12100223 0.10465275 -0.08861951
0.017775413 -0.07378725 0.12363157 -0.03621156 0.07552784 0.0648672 0.07794433 0.077467725
0.056986455 0.028547382 -0.0031452582 -0.079982504 0.22874194 -0.004165367 0.35205635 0.19715843
-0.027062662 0.17244945 0.044829708 0.0143169835 0.05602077 0.06399221 -0.08886724 0.11893108
0.016738364 0.047530144 0.047455113 0.13834915 0.081220135 0.07431221 0.084873356 -0.07129695
0.12931935 0.11458023 0.074452564 0.11125301 0.0047664545 -0.08859957 -0.1067011 0.04810376
-0.11120876 0.03305459 0.03585776 -0.18387774 0.05206219 0.19104955 -0.025080588 0.005776316
-0.09628307 0.07360813 0.038706396 0.03991588 0.06178488 0.07428183 0.18468148 0.030732144
0.082476206 -0.051203255 -0.019530632 -0.057330675 0.121045046 -0.0704061 -0.013304814 -0.04262379
0.1069932 -0.004618803 0.06338903 0.11673729 0.09347175 -0.085304074 -0.2913489 0.29952523
-0.004046021 0.24907361 0.61446697 -0.010591288 0.2342221 0.30906567 -0.085318536 -0.12520997
0.17898591 0.017592838 -0.26755524 0.011520219 0.15575501 -0.13616304 -0.0985807 0.35125735
0.1839898 0.15125018 0.28044748 0.14640313 0.03521262 -0.067754336 -0.21311541 0.09174573
0.49422705 0.18153718 0.49213096 0.90416443 0.3333842 0.18898852 0.3137843 0.1464142
-0.00995402 0.26835778 0.042291638 0.046981763 -0.05127115 0.2510414 1.2617254 -0.07176305
-0.27411735 0.09290083 0.20307556 -0.30606708 0.13740417 0.14351422 0.11953571 0.06824845
0.19231333 0.37701324 0.3984252 0.19899553 -0.073691726 0.09529089 0.18799178 -0.029883515

decoder.0.bias f4 [32]
00000000: 46ca 313c f261 383c 25a7 7e3d e551 c33d
00000010: 93bb 793d 9bcf 34bd eb10 b43d 99e4 983d
00000020: 00f5 763d 9a09 cc3d c015 053d 2cdf ecbc
00000030: 85aa ba3d a482 8bbc 9154 903e ade8 bebc
00000040: 4d19 823d 1b69 9e3c cd1d 3bbc 388f 2b3d
00000050: 1381 fd3c 0e98 3c3a 47c3 a5bc 137d ad3b
00000060: 7a2b 083d 0596 9dbd a48a 6dbd 0757 763d
00000070: f8fc e9bc 7e15 0f3d 6146 afbc 1964 27bd
0.010851448 0.011253821 0.06217112 0.095371045 0.0609699 -0.0441433 0.08792289 0.074654765
0.060292244 0.09962769 0.032491446 -0.02891501 0.09114555 -0.017030068 0.2818952 -0.023304308
0.06352482 0.019337228 -0.011420679 0.04188463 0.030945336 0.0007194289 -0.020234717 0.005294451
0.033244587 -0.076946296 -0.057993546 0.06014159 -0.028563008 0.034932606 -0.021395864 -0.040866945

decoder.2.weight f4 [32, 16, 7]
00000000: a548 6d3d 2bf7 09bd e711 8d3d 8247 22bd
00000010: b0be c1bd 8be4 2fbe 9404 35bd eedb 55bd
00000020: 0d9a 63bc b316 933d 6681 aa3d f22b ac3f
00000030: 9bb4 94bc b649 bd3d 5371 ccbd 4ca6 c33c
00000040: b39a 713d 879c 323e 6939 bebd 6c36 a9bc
00000050: 392d 163d f72b b7bc 7e7a debe 7d26 fabc
00000060: 6cb0 563f 2295 833d 9f28 4f3d 7e8b 8e3d
00000070: 8e4e 42bd c1d1 2ebd bd10 c3bd d49e 12be
00000080: 833c e03d 48fb 6d3d 73da e03d f126 623d
00000090: d347 4a3d 08f4 4cbd e971 1e3e 585a 673c
000000a0: 610e d5bd e0be 6cbc d290 8f3d 6d1d 69bc
000000b0: d5c8 f0bc 3af0 c1bd 1b71 9e3d 764b f1bb
000000c0: dcd2 19be b230 813e a111 ca3c f3ef 56be
000000d0: e27d fa3e 7eca 34bc 1671 2d3c 0579 bcbd
000000e0: b5ec 94bd 56da 36bd ae5e a9bd 6f6c ac3d
000000f0: b57b e33d e400 943d 88de 933d 3577 dabd
00000100: 813e 4ebe 0773 9dbe 8153 423e ddce 78bf
00000110: c175 5f3e e1df 643f 3da2 783d c168 1b3c
00000120: 25ca 323d 24b9 28be c1b1 1bbd aab9 cb3d
00000130: f940 fabc 83f6 8dbc 4162 bebd bd9a e0bd
00000140: 5be5 1fbd 833c 913d 6672 143e 9a52 183d
00000150: 783a 13bd 881c 83bd 1f72 c1bc 6e01 9fbc
00000160: ccbf a1bc 5596 8f3d cb3b 683d 9f03 1d3d
00000170: 071c 6fbe 3262 203e 9042 203d 4d0f 073e
00000180: 503f a0bd 1109 d53c 2860 3fbb eb02 c73c
00000190: ab4d 0ebd 7d52 00bd 8bd6 293d 7e70 973c
000001a0: 9dfc 933c 98f3 cb3d 2ec5 f43d 5e53 443d
000001b0: f6d3 313d efe6 563c 5309 debb 62ab 173c
000001c0: 11dc 70bd 29de e33d a7a2 31bd 2f9f 73bd
000001d0: 33fd 87bd 09be d5bd f904 3ebc 485c 5abd
000001e0: 1171 b1bd 51a2 6f3c cd67 b93d 88fe 293d
000001f0: 73c8 dc3d ade4 c1bb df69 86bd 5406 45bd
00000200: c4e9 553b 4c94 123d f29a d0bd b1eb 3cbd
00000210: 0a99 d3bd c89b bd3c fbd8 2abe e5f3 d3bd
00000220: 5e41 aabe 47a0 e13c 248c 23bd fed3 143d
00000230: 9e1d abbd 3a9b 0cbd ce78 30be 5a93 90bc
00000240: e5e2 393e 96b1 07bd fa1c e6bc f85c 6e3d
00000250: aa7e 623e 5fd1 2f3b 4a77 113c 1ef1 fcbd
00000260: 6e77 efbd 564a 363d 973c c53d e4e5 a5bd
00000270: 9a7f 203e 3505 f3bc 4278 00be c95d 09bd
00000280: e877 48bc 506f 19be bffc 16bd f7ec a73d
00000290: cec7 1c3d e62f f73c 7b5b 583d 2bf4 cfbe
000002a0: 6191 0ebc 8ec4 873c e4ae 3f3d afe5 323e
000002b0: 2cee 1bbe 8c69 cbbb 3b62 843d ecc4 50be
000002c0: e7f1 7abe 20dd 9cbe 3259 8e3e 64df c83e
000002d0: 1589 cdbc dae7 e9be bfb7 4ebd f4a4 023e
000002e0: 3fef d8bd 0acc 76be bdfa 3a3e 2d98 083d
000002f0: 225f e43d e82e 9b3c 7e77 94bd 261c 5c3d
00000300: 1fae 893d cc3e 143e 09c5 c8bb 0350 adbd
00000310: dd70 d13d 183e cebd 29ba 9cbd 951e 663d
00000320: b6db adbd 53c5 d93d 8186 6fbc e475 3b3d
00000330: bef6 36be e8fe 24bd 7b03 dabd 1711 c5bd
00000340: a5a1 2abe a7ed c3bd 924a 183d 30d2 be3c
00000350: 6e3b 41be aeec 173c 256b 103e 9e4a b03c
00000360: 5992 16be 198c 2d3d c007 a03c 04bc a53d
00000370: 6465 18bc 9224 853d d458 163a 41a3 b83d
00000380: bad4 2b3d caad 0b3d f9ed 803d ffdf 633d
00000390: 3398 3dbd 5165 503b 8bc5 a1bd 4f00 e4bc
000003a0: 8b83 dbbd 8bea 86bd ae83 f83d a3e7 55bc
000003b0: b856 f43c 96b0 a03c 1e07 5338 bbbf 023b
000003c0: a82f 923d 17fa 8abd 535f a2bc 31c1 bbbd
000003d0: 714c 93bd 36b2 983d bfbc 3fbd f173 133d
000003e0: 68fb b63e b3c6 ac3d 0667 0c3e b993 06bd
000003f0: 2f82 a23d 89eb bfbc 9d73 d23d 2c51 1b3d
0.057930607 -0.033682983 0.0688818 -0.039618976 -0.09460199 -0.17177026 -0.04419382 -0.052211694
-0.013891709 0.07182064 0.08325462 1.3450911 -0.018152526 0.09242575 -0.099825524 0.023883007
0.058985423 0.17442523 -0.09288294 -0.020655833 0.03666422 -0.022359831 -0.4345283 -0.03053593
0.8386295 0.06424929 0.05057585 0.069602 -0.047438197 -0.042680506 -0.09524677 -0.143184
0.10949042 0.05810097 0.10979166 0.05521292 0.049384903 -0.050037414 0.15473141 0.014120661
-0.10403133 -0.014449805 0.07010044 -0.014228207 -0.02939264 -0.09469648 0.07736417 -0.007363732
-0.15021843 0.25232464 0.02466661 -0.20989971 0.48924166 -0.011034606 0.010586044 -0.0920277
-0.07271711 -0.044641815 -0.08270012 0.084191196 0.111075796 0.072267324 0.07220179 -0.10667268
-0.20141031 -0.3075182 0.18977167 -0.9719065 0.21822263 0.8940411 0.060701597 0.0094854245
0.04364981 -0.16476876 -0.038011316 0.09947522 -0.03054856 -0.01732946 -0.09296084 -0.10967014
-0.03903709 0.0709162 0.14496765 0.03718815 -0.035944432 -0.06401926 -0.023613987 -0.019409861
-0.019744776 0.070110954 0.056697648 0.03833353 -0.23350535 0.15662459 0.03912598 0.1318943
-0.07824576 0.0260053 -0.00292016 0.024293384 -0.03474204 -0.031328667 0.04146437 0.018486258
0.018064791 0.09958571 0.119516715 0.047931068 0.043415032 0.013116582 -0.006776014 0.009257169
-0.05880362 0.11126358 -0.043368008 -0.05947798 -0.06640091 -0.10436637 -0.011597865 -0.053310663
-0.08664144 0.014626102 0.090530016 0.041502506 0.1078042 -0.005917153 -0.06563162 -0.048101738
0.0032640556 0.03578596 -0.101858035 -0.04612321 -0.10331924 0.023145571 -0.16684334 -0.103492536
-0.33252996 0.027542247 -0.03992857 0.036334984 -0.083552584 -0.034327723 -0.17233583 -0.017648388
0.1815296 -0.033128344 -0.028089989 0.05819413 0.22118631 0.0026827676 0.008878538 -0.12350677
-0.11692701 0.044504486 0.09630697 -0.08100489 0.15673676 -0.029665569 -0.12545875 -0.033536706
-0.012235619 -0.14983869 -0.03686213 0.08199494 0.038276486 0.030174207 0.052821618 -0.40615973
-0.008701653 0.016573217 0.046797648 0.1747043 -0.15227574 -0.0062076505 0.064640485 -0.2038762
-0.24506341 -0.30637455 0.27802426 0.39232934 -0.02508978 -0.456847 -0.050468203 0.12758237
-0.105925076 -0.24101272 0.18259712 0.03334825 0.11150958 0.018943265 -0.07249354 0.053737782
0.06722664 0.1447708 -0.006127004 -0.08462527 0.10226605 -0.10070437 -0.07652695 0.05618151
-0.08489172 0.1063334 -0.014619471 0.045766726 -0.17867562 -0.04028216 -0.10645195 -0.096224
-0.16663225 -0.09566813 0.03718049 0.023293585 -0.18870327 0.009272737 0.14103372 0.021519955
-0.14704265 0.042369936 0.019534945 0.08092502 -0.009301517 0.06501116 0.00057352823 0.09015513
0.04195092 0.034101285 0.0629539 0.05563354 -0.046287727 0.003179867 -0.078990065 -0.027832178
-0.10718449 -0.06587704 0.12134491 -0.013055715 0.029826507 0.019615453 5.031295e-05 0.0019950706
0.07137996 -0.06785982 -0.019820845 -0.09167708 -0.071923144 0.07455866 -0.04681086 0.035999242
0.35738683 0.08436336 0.13711175 -0.032855723 0.07934987 -0.023427742 0.10275958 0.03791921

decoder.2.bias f4 [16]
00000000: be58 5dbc b8da 903c 4516 463d af82 c6bc
00000010: ac75 a93d 1de4 283d 92e1 3c39 b2b8 753d
00000020: 9184 93bd 7231 963d dea0 c73d 4d68 91bd
00000030: a189 073d e4c6 a4bc 14f8 003c 385b 7c3d
-0.013509927 0.017682418 0.04836108 -0.024232237 0.08274397 0.04123317 0.00018013109 0.059990592
-0.072030194 0.0733365 0.0974748 -0.07099972 0.033090238 -0.02011437 0.007871646 0.06161043

decoder.4.weight f4 [16, 1, 7]
00000000: 34af dbbd d51f 9c3e 96d0 d33d 4227 553e
00000010: 899b 513d 05b2 683e dbba 7c3e ff95 8b3e
00000020: 469f 37be a082 7dbe dcc0 92be 5897 3f3c
00000030: d5d4 98bd d598 983e 0063 bf3e 9530 c53d
00000040: 51a7 46bd 8c2b b03e 9645 b7be 0e10 8bbe
00000050: 42a6 113e 9d45 8bbe 8017 b0bd 5bdc 97be
00000060: e3de 74be 5927 8d3e c56a c93e e9bc 8bbd
00000070: 0082 ab3e 4271 74bc 3007 76be 5764 64be
00000080: ec45 b7be 9647 8b3e 3b3a 87bd f650 87be
00000090: 4acc 8f3e c0a4 44be c8da 803c b6db 2f3e
000000a0: 31ee 01bd d0e0 3b3e 7b45 563e a284 ac3c
000000b0: 5901 583e ecf7 5f3e fa5c d33d db1a 59be
000000c0: 6719 87be 5e50 e7bc 9f23 afbe c0d0 833e
000000d0: af12 53be 4e76 b83d da1f 29be 4f1b 203d
000000e0: ff60 40be ff5d d93e 6ccf e63c 8adb f9bd
000000f0: d73d 4ebe 20e4 91be 8e20 63be 77a1 b83d
00000100: 3a2c 8ebd 3e0a 02bf 8c10 aa3e bd4d f9be
00000110: 4153 d1bf d955 a3bf 6401 7e3c 5d7c debe
00000120: 0fd6 bdbe 23d3 28be e6d9 8b3e 3513 b53e
00000130: 6ede 6d3e 32ff cf3e f66d 6bbe 82fe 8abe
00000140: 1af9 a2bd 5f3c 1dbe 6800 a43d 42c2 b4bd
00000150: 9021 92be 6605 25be d302 a7bd 43c8 b23c
00000160: a4c3 bfbd 428d 97be 2999 ab3e 8f14 543b
00000170: c72a 1dbe 3638 013e 3c70 ca3d acf5 be3c
00000180: 7acb 79be 9340 973c 119e 8fbe 8c21 c1bb
00000190: f520 a6be f8d0 70be 28b4 82bd e4e2 13be
000001a0: 0837 243e e8a8 703b aacd f23d 8540 513e
000001b0: f92d 0e3c cfe1 4b3e a92a 5d3e db34 6d3e
-0.10726777 0.30493036 0.10342519 0.20815757 0.05117372 0.22724159 0.24680655 0.27262875
-0.17931852 -0.2475686 -0.28662765 0.011693798 -0.074624695 0.29804102 0.37380219 0.09628407
-0.04849941 0.34408224 -0.35795277 -0.27160686 0.14223579 -0.27201548 -0.08598232 -0.29660305
-0.2391315 0.27569082 0.3933927 -0.06823141 0.3349762 -0.014919581 -0.2402618 -0.22303902
-0.35795534 0.27203053 -0.066029035 -0.26428956 0.28085548 -0.19203472 0.015729323 0.17173657
-0.031721298 0.18347478 0.20924942 0.021059338 0.21094264 0.21871918 0.10320468 -0.21201651
-0.26386568 -0.028236564 -0.34206864 0.257452 -0.20612596 0.0900694 -0.16516057 0.039088544
-0.18787001 0.42454526 0.028175078 -0.12200077 -0.20140778 -0.28494358 -0.22180387 0.09015172
-0.06942029 -0.5079688 0.3321575 -0.48692122 -1.6353532 -1.2760574 0.015503261 -0.43454257
-0.37077376 -0.16486792 0.2731468 0.35366216 0.23229381 0.40624386 -0.22991166 -0.271473
-0.079576686 -0.15355061 0.0800789 -0.08826114 -0.2854123 -0.1611534 -0.081548356 0.021824008
-0.09363487 -0.2959996 0.3351529 0.0032360887 -0.1534835 0.12619099 0.09884688 0.023310505
-0.24394026 0.018463409 -0.28050283 -0.0058938917 -0.3244702 -0.23517215 -0.06382018 -0.1444202
0.16036618 0.003672177 0.118556336 0.20434768 0.008677953 0.19910358 0.21598305 0.23164694
